model/keypoint_classifier/keypoint_classifier.tflite (tflite, 6732 bytes, 6 tensors)

arith.constant f4 [8, 10]
-0.41854802 0.20850945 -0.3661058 0.4879518 -0.08530377 0.0070313187 -0.012956784 -0.24389008
0.49337816 0.7714269 -0.93021214 -0.35942432 0.8644338 -0.5932697 0.6847994 -0.981268
0.6492993 0.30093932 0.33443415 0.072535425 -0.872271 -0.21033573 0.2093403 -0.87640154
1.1816306 1.2674489 0.020359151 -0.33725283 -0.13878532 0.08543658 -0.77407223 -1.2017018
-1.5111849 -0.28199667 -0.1275412 -0.24331552 -1.1328845 0.8348527 -0.73916346 0.41982198
0.7793414 0.24207248 -1.3452017 0.6367132 -0.42083067 -0.6095524 0.30119833 0.08450423
-0.5206608 -0.66713285 1.1407577 1.31839 0.12422125 -0.37148437 -0.06965675 -0.63828796
-0.0011033721 0.59662855 -1.8727943 -0.10004326 0.09319649 -1.0647606 -0.98628545 -0.19514966
0.0011195603 -0.050885223 -1.4079772 0.636589 0.76488185 -1.116786 0.024976254 -0.33289373
-0.49179637 -0.78165084 0.7129248 1.0366243 1.1766227 -3.6205473 0.2305585 -0.8187689
00000000: ed4b d6be 8083 553e 3872 bbbe d1d4 f93e
00000010: beb3 aebd fa66 e63b b148 54bc 52be 79be
00000020: 109c fc3e 3c7c 453f 6222 6ebf 7706 b8be
00000030: 894b 5d3f 86e0 17bf 034f 2f3f 6134 7bbf
00000040: 7b38 263f b814 9a3e f43a ab3e 748d 943d
00000050: 274d 5fbf 4062 57be 4e5d 563e da5b 60bf
00000060: ac3f 973f c43b a23f 3cc8 a63c 67ac acbe
00000070: bd1d 0ebe 60f9 ae3d 9929 46bf 5dd1 99bf
00000080: 826e c1bf de61 90be 299a 02be b427 79be
00000090: 5c02 91bf e8b8 553f d139 3dbf e8f2 d63e
000000a0: eb82 473f d9e1 773e 922f acbf a3ff 223f
000000b0: 1e77 d7be a00b 1cbf ab36 9a3e 8e10 ad3d
000000c0: 074a 05bf 38c9 2abf 5904 923f 01c1 a83f
000000d0: b667 fe3d 3333 bebe 33a8 8ebd d766 23bf
000000e0: 069f 90ba a6bc 183f b9b7 efbf 7be3 ccbd
000000f0: cddd be3d 134a 88bf 347d 7cbf 50d5 47be
00000100: 36be 923a 066d 50bd 9938 b4bf 7ff7 223f
00000110: 4ccf 433f d8f2 8ebf 009b cc3c 0c71 aabe
00000120: bccc fbbe 451a 48bf 3d82 363f 1bb0 843f
00000130: 939b 963f 0cb7 67c0 8717 6c3e d79a 51bf

arith.constant1 f4 [10, 20]
0.086542584 0.33273637 0.1221889 0.39481798 0.86925966 0.65097773 -0.24267083 0.084422484
0.24485874 0.682076 0.3900232 0.3113761 -0.020624021 -1.5755945 -0.5971847 -0.7480355
1.0740243 -3.0822766 0.104642816 -2.1764283 0.25395137 -0.1291393 -0.8399943 0.19054876
0.7556891 -0.9659765 -0.07979001 0.31366646 -0.49275336 -1.4612002 1.0213218 -2.17918
-0.043209687 0.39120582 0.18866742 0.8008041 -0.1694864 -0.14962243 0.07854372 -0.4864067
0.67577815 -0.28743574 -0.2917641 0.17593753 0.90971285 -0.39504313 0.9781759 -0.48972753
0.14450215 -0.18092182 0.60810244 0.74472976 -0.08744174 0.17324793 0.003673798 0.57161385
0.32265234 -0.6821175 -0.47474137 -0.9335727 0.31989974 0.3879628 0.30088288 -0.1318686
0.9024003 0.22638777 0.379413 -0.3134791 -0.5560516 0.23361164 0.38790703 -0.8161847
0.7660879 0.58342415 0.9050629 0.79781544 0.404699 0.22110407 0.3142963 -0.18152054
0.5507707 -0.6212888 1.1277642 0.7210964 -0.34361964 -1.0530599 -0.11805979 0.5517851
0.15687363 0.14413759 0.17087601 0.85204905 -1.2653446 -0.2716003 -1.2831907 0.20254794
0.23081599 -0.31456378 1.0775592 0.6036613 0.1744193 -1.3129383 0.01448191 -0.09595496
-0.26980236 -2.04424 0.19383794 -0.56602037 -0.53283054 -0.21412723 -2.0004842 0.07161455
-1.945993 -0.42610565 -2.2436635 -0.09339938 -0.8771408 -0.11691541 -0.02385338 0.049804587
-1.2530762 0.02460799 -0.71439445 0.23558977 0.30592966 -0.032036092 -0.049383476 0.41197312
1.2949998 1.0868607 1.6302435 0.06200539 -0.06773238 -0.08005631 -0.16384701 0.4454132
0.27782178 0.18263999 0.17222023 0.13903508 0.12639691 0.7727591 0.8724582 0.033406217
0.16976672 0.67803246 0.015061706 1.8502705 1.6979476 0.09423407 0.09504111 1.2389239
0.82395214 0.87066644 0.9689732 -0.3074743 0.052739464 -0.1453847 -0.23511179 0.011730665
1.1382508 0.2077515 0.69139767 1.5658466 0.9572602 0.11535034 -0.57108253 -0.022654358
-0.4139579 -0.015230795 -0.09711469 -0.30789682 0.17393984 0.22529083 0.23878376 0.012144363
1.1173004 0.8416655 0.6428401 1.247361 0.14665008 0.35295302 0.77581847 -0.09205131
1.199338 0.5819682 0.9742285 -0.08598648 0.21034403 0.8865853 -0.52745146 0.35560688
0.13678657 0.00037265322 0.09446751 -0.38837418 0.012402014 -0.39523616 0.596625 0.0083074765
00000000: 3d3d b13d 6c5c aa3e 2d3e fa3d 9525 ca3e
00000010: cd87 5e3f 7aa6 263f b47e 78be b2e5 ac3d
00000020: 40bc 7a3e 889c 2e3f 1fb1 c73e b06c 9f3e
00000030: b5f3 a8bc 15ad c9bf 19e1 18bf 417f 3fbf
00000040: a179 893f 0544 45c0 f94e d63d 9a4a 0bc0
00000050: ea05 823e 183d 04be de09 57bf 371f 433e
00000060: d774 413f 3c4a 77bf f268 a3bd e498 a03e
00000070: 2b4a fcbe 9c08 bbbf acba 823f af77 0bc0
00000080: a4fc 30bd 214c c83e 0832 413e 7f01 4d3f
00000090: d88d 2dbe 9f36 19be 88db a03d 4d0a f9be
000000a0: ccff 2c3f c72a 93be 1b62 95be f828 343e
000000b0: f1e2 683f 1843 cabe bc69 7a3f 91bd fabe
000000c0: 5ff8 133e 9243 39be 9aac 1b3f 9ca6 3e3f
000000d0: a814 b3bd e867 313e 1ac4 703b 4955 123f
000000e0: b032 a53e 419f 2ebf 4d11 f3be 9ffe 6ebf
000000f0: e6c9 a33e 0fa3 c63e 520d 9a3e 9008 07be
00000100: b503 673f 32d2 673e 6c42 c23e 5580 a0be
00000110: 6659 0ebf e437 6f3e c09b c63e 7bf1 50bf
00000120: 561e 443f 495b 153f 34b2 673f a23d 4c3f
00000130: b534 cf3e 1b69 623e 72eb a03e 85e0 39be
00000140: 4fff 0c3f c80c 1fbf 945a 903f c699 383f
00000150: eaee afbe abca 86bf 55c9 f1bd ca41 0d3f
00000160: 7ba3 203e ce98 133e 1ffa 2e3e e31f 5a3f
00000170: d0f6 a1bf 320f 8bbe 983f a4bf ba68 4f3e
00000180: 075b 6c3e 810e a1be 76ed 893f 8c89 1a3f
00000190: f99a 323e 5d0e a8bf 8845 6d3c 0984 c4bd
000001a0: 8923 8abe d4d4 02c0 747d 463e b6e6 10bf
000001b0: 9567 08bf 2b44 5bbe ef07 00c0 a6aa 923d
000001c0: 4c16 f9bf 852a dabe 2f98 0fc0 2d48 bfbd
000001d0: 4d8c 60bf 5971 efbd 2a68 c3bc e5ff 4b3d
000001e0: cd64 a0bf b296 c93c 8ee2 36bf 723e 713e
000001f0: d0a2 9c3e 4738 03bd 5446 4abd 24ee d23e
00000200: 8ec2 a53f 401e 8b3f d2ab d03f 5df9 7d3d
00000210: 46b7 8abd 90f4 a3bd 83c7 27be 330d e43e
00000220: a83e 8e3e fa05 3b3e 805a 303e 365f 0e3e
00000230: 316e 013e 8ad3 453f 6c59 5f3f f5d4 083d
00000240: 54d7 2d3e 8993 2d3f 60c5 763c aad5 ec3f
00000250: 5956 d93f cbfd c03d eaa4 c23d 0f95 9e3f
00000260: 87ee 523f ffe3 5e3f a10e 783f 456d 9dbe
00000270: 5605 583d badf 14be 25c1 70be fa31 403c
00000280: 34b2 913f cfbc 543e 70ff 303f a96d c83f
00000290: 010f 753f cd3c ec3d 7732 12bf a295 b9bc
000002a0: 4af2 d3be 968a 79bc 11e4 c6bd a7a4 9dbe
000002b0: 491d 323e a4b2 663e bb83 743e 26f9 463c
000002c0: b303 8f3f 6477 573f 2b91 243f 86a9 9f3f
000002d0: 702b 163e 42b6 b43e 0a9c 463f 6685 bcbd
000002e0: e883 993f defb 143f 0a67 793f ae19 b0bd
000002f0: 6d64 573e 41f7 623f 0f07 07bf 1b12 b63e
00000300: c711 0c3e ab60 c339 2f78 c13d fbd8 c6be
00000310: d131 4b3c 655c cabe 6abc 183f 151c 083c

arith.constant2 f4 [8]
-0.11912305 -0.92025167 0.8577659 0.69166255 0.06627111 -0.9799847 0.290167 -0.027988816
00000000: c9f6 f3bd 9d95 6bbf 8c96 5b3f cc10 313f
00000010: 26b9 873d 47e0 7abf c590 943e cd48 e5bc

arith.constant3 f4 [10]
0.13313851 0.5540678 -0.18115157 -0.28267914 1.0869322 0.78301346 1.1821768 0.51232857
0.7282505 0.18813789
00000000: 7655 083e 63d7 0d3f cc7f 39be 52bb 90be
00000010: 9820 8b3f 9273 483f 9251 973f f727 033f
00000020: a06e 3a3f 38a7 403e

sequential_2_1/dense_6_1/BiasAdd/ReadVariableOp f4 [20]
-0.03631582 -0.41374755 0.47637758 -0.9103923 -0.7835256 -0.62880385 0.46869332 -1.1417303
-1.3762538 -0.7053404 -1.0367405 -0.7527949 -0.59107965 -1.1855949 -0.7351053 -0.29438493
-1.5027938 -1.13611 0.41636747 -0.98546994
00000000: e6bf 14bd b8d6 d3be c3e7 f33e 780f 69bf
00000010: 2295 48bf 4af9 20bf 92f8 ef3e 3824 92bf
00000020: 1629 b0bf 3091 34bf eab3 84bf 2bb7 40bf
00000030: ff50 17bf 93c1 97bf dc2f 3cbf 9fb9 96be
00000040: 8c5b c0bf 0d6c 91bf 1e2e d53e c247 7cbf

sequential_2_1/dense_6_1/MatMul f4 [20, 42]
-0.2511795 -0.1212257 1.7008282 1.532797 0.7366567 0.8879939 0.48067912 0.57895166
0.47539538 0.38787988 0.73927724 0.53365546 0.42140272 0.27005985 -0.00110305 0.1855545
-0.13904981 0.16237366 0.65526205 0.3808632 0.15513742 0.030675104 -0.033826966 -0.097331405
-0.010225245 -0.13749787 0.45872492 0.13360518 -0.051359393 -0.11717871 -0.23776482 -0.18737496
-0.24126647 -0.27714616 0.31126067 0.02730502 -0.18078709 -0.12125025 -0.37397394 -0.10618474
-0.4335099 -0.100515485 -0.2044352 0.24159545 -0.15735437 0.411402 -0.16844992 0.23662859
-0.4128056 0.15079461 -0.5632998 0.2094443 0.1418503 0.17179772 0.11895929 0.11852633
0.0831076 0.07616603 0.040507767 0.042034343 0.099809684 0.1631472 0.04173281 0.13161771
0.08733569 -0.28072917 0.15622075 -0.4709106 -0.02278256 0.18752845 -0.05416346 0.04884916
0.16488364 -0.45138165 0.4138297 -0.7731709 -0.14601396 0.18431348 -0.105672784 0.034856997
0.094798684 -0.42576098 0.23417819 -0.57052076 -0.30159009 -0.19523221 0.016381899 3.3062034
-0.10068737 1.531568 -0.04289982 0.9555111 -0.06441468 0.7164202 -0.4460415 0.42985737
-0.20272008 0.21935956 -0.068365335 0.11711236 -0.0061725713 0.034990296 -0.34257004 -0.077932976
-0.02381346 -0.050826386 0.022904746 0.04565627 -0.052218214 0.014123743 -0.22012734 -0.5376015
0.15345085 -0.23740768 0.21560296 -0.052019715 0.10792272 -0.07396321 -0.14080864 -0.8392898
0.18474469 -0.41093418 0.27865836 -0.14778142 0.19217701 -0.057597615 0.29025328 0.13308585
1.876191 0.18126787 1.1179836 -0.10440699 0.5599001 -0.17302074 0.13090456 -0.12159791
0.51029664 -0.072536215 0.21957919 -0.07255668 -0.21454047 -0.03141848 -0.41640702 -0.024582993
0.2381603 -0.11764524 0.3574152 -0.08037977 0.023933578 -0.07934848 -0.23631294 -0.15976293
0.13591331 -0.1628942 0.32686046 0.0052598394 0.0770702 -0.0032587857 -0.06879531 -0.08085878
0.048724543 -0.06029869 0.35019815 0.16828594 0.21016687 0.1938501 0.21069129 0.15708226
-0.2672306 0.20513642 -0.030880233 0.16962865 -0.016957851 -0.12816247 -0.02470968 -0.48996487
-0.063845426 -0.76236635 -0.025703251 0.14539206 -0.014323388 0.0050910283 -0.033114184 -0.07347807
-0.022621432 -0.12635498 -0.008010992 0.18157 -0.024258535 -0.37517688 -0.04744704 -0.07140705
-0.049143173 0.37852716 -0.0070100417 0.060524847 -0.0007620269 -0.23192197 -0.04004033 0.37469694
0.043418404 1.2510272 0.074094854 -0.23509185 0.038719136 -0.061335992 -0.0539133 0.5460372
-0.006279818 1.4693344 0.12477252 -0.21874565 -0.28187653 -0.25412127 -0.22756736 0.08367927
-0.45531413 0.1461201 -0.6465534 0.09844289 0.27740714 0.23558435 0.10383295 0.13579267
-0.006654912 0.09191775 -0.025650753 0.047560163 0.22224316 0.26761454 0.036922213 0.10196517
0.08499284 -0.13304324 0.20639938 -0.021559587 0.06346972 0.33849078 -0.005738847 0.010153507
0.21834949 -0.29671615 0.3033935 -0.16957623 -0.14765449 0.45729637 0.0117457025 0.016404863
0.31191036 -0.585714 0.55165 -1.0535907 0.27290326 -0.18239743 0.6945681 0.5499445
00000000: 999a 80be 2e45 f8bd bdb4 d93f b132 c43f
00000010: 8995 3c3f 9153 633f 931b f63e 2d36 143f
00000020: 0667 f33e 3198 c63e 4641 3d3f a59d 083f
00000030: 19c2 d73e 4945 8a3e 3794 90ba 0002 3e3e
00000040: 1363 0ebe 4845 263e 41bf 273f 8000 c33e
00000050: 58dc 1e3e 5b4a fb3c 258e 0abd b055 c7bd
00000060: c987 27bc 3ecc 0cbe fedd ea3e cccf 083e
00000070: 3a5e 52bd 64fb efbd 9f78 73be 39df 3fbe
00000080: 8f0e 77be 1ae6 8dbe 8f5d 9f3e c7ae df3c
00000090: 4020 39be 0d52 f8bd 8379 bfbe 6377 d9bd
000000a0: 02f5 ddbe 10db cdbd 7657 51be cc64 773e
000000b0: 8121 21be 48a3 d23e 237e 2cbe c44e 723e
000000c0: 415b d3be e769 1a3e 6a34 10bf 9178 563e
000000d0: 3441 113e beeb 2f3e eea0 f33d efbd f23d
000000e0: 5134 aa3d effc 9b3d 79eb 253d 342c 2c3d
000000f0: 0569 cc3d 0f10 273e 06f0 2a3d cbc6 063e
00000100: 0edd b23d bcbb 8fbe 55f8 1f3e 321b f1be
00000110: 7ea2 babc 7507 403e 81da 5dbd 0f16 483d
00000120: 42d7 283e 7f1b e7be 7de1 d33e 87ee 45bf
00000130: af84 15be acbc 3c3e f96a d8bd 36c6 0e3d
00000140: d025 c23d 58fd d9be 68cc 6f3e a60d 12bf
00000150: 046a 9abe f4ea 47be 5533 863c d698 5340
00000160: 2e35 cebd 6c0a c43f b9b7 2fbd 609c 743f
00000170: d8eb 83bd 5067 373f 8d5f e4be 4416 dc3e
00000180: da95 4fbe cb9f 603e 2003 8cbd 9bd8 ef3d
00000190: 4843 cabb fc51 0f3d 5765 afbe 539b 9fbd
000001a0: 7214 c3bc 542f 50bd bca2 bb3c 1202 3b3d
000001b0: c4e2 55bd 4667 673c 1069 61be 40a0 09bf
000001c0: 3822 1d3e 001b 73be 06c7 5c3e a012 55bd
000001d0: 9606 dd3d 067a 97bd 2430 10be b2db 56bf
000001e0: b62d 3d3e f765 d2be 4fac 8e3e 0354 17be
000001f0: 0dca 443e 7aeb 6bbd 149c 943e a847 083e
00000200: 0727 f03f 499e 393e 161a 8f3f 55d3 d5bd
00000210: 9d55 0f3f 592c 31be d80b 063e 5308 f9bd
00000220: cda2 023f de8d 94bd 5ed9 603e 9998 94bd
00000230: 7fb0 5bbe aab0 00bd 4d33 d5be 4662 c9bc
00000240: 4be0 733e fdef f0bd 20ff b63e 269e a4bd
00000250: 5a10 c43c 7581 a2bd 05fc 71be e598 23be
00000260: dc2c 0b3e bdcd 26be 415a a73e bb5a ac3b
00000270: fbd6 9d3d 5a91 55bb 8ee4 8cbd 4a99 a5bd
00000280: 6393 473d c2fb 76bd 2c4d b33e 2653 2c3e
00000290: fc35 573e a480 463e 75bf 573e 2cda 203e
000002a0: 73d2 88be 480f 523e 8bf8 fcbc 22b3 2d3e
000002b0: 31eb 8abc 063d 03be f46b cabc addc fabe
000002c0: 64c1 82bd 712a 43bf a08f d2bc a8e1 143e
000002d0: a5ac 6abc a4d2 a63b bda2 07bd ac7b 96bd
000002e0: 9550 b9bc 3363 01be 8940 03bc 7ced 393e
000002f0: d6b9 c6bc 2f17 c0be d457 42bd dc3d 92bd
00000300: 5a4a 49bd 50ce c13e 7eb4 e5bb e7e8 773d
00000310: c2c2 47ba f47c 6dbe 5401 24bd 47d8 bf3e
00000320: 7fd7 313d a921 a03f 0bbf 973d ebbb 70be
00000330: f597 1e3d 733b 7bbd 31d4 5cbd 18c9 0b3f
00000340: eec6 cdbb 2613 bc3f bc88 ff3d dcfe 5fbe
00000350: 1f52 90be 2f1c 82be 6b07 69be 0a60 ab3d
00000360: ef1e e9be 82a0 153e 8684 25bf 6d9c c93d
00000370: 4f08 8e3e 063d 713e 5fa6 d43d 3c0d 0b3e
00000380: 7311 dabb 603f bc3d 8721 d2bc 72ce 423d
00000390: b693 633e c604 893e bf3b 173d 1dd3 d03d
000003a0: ba10 ae3d 7d3c 08be 5c5a 533e bb9d b0bc
000003b0: 6afc 813d aa4e ad3e f00c bcbb e55a 263c
000003c0: 0297 5f3e 2eeb 97be 6556 9b3e 64a5 2dbe
000003d0: bd32 17be c022 ea3e 0c71 403c 7e63 863c
000003e0: b7b2 9f3e 5af1 15bf ef38 0d3f 0fdc 86bf
000003f0: fab9 8b3e 64c6 3abe 37cf 313f 2ac9 0c3f
