model/keypoint_classifier/keypoint_classifier.tflite (tflite, 6756 bytes, 6 tensors)

arith.constant f4 [10]
0	0x3fa0ba74	1.2556901
1	0xbd0b2540	-0.03397107
2	0x3f443968	0.76650095
3	0x3e6888dd	0.22708459
4	0xbe866801	-0.26251224
5	0x3eb5d45e	0.35513586
6	0x3d9cadab	0.07650312
7	0x3f47dbd1	0.7806979
8	0x3edab7b8	0.4271829
9	0x3f0a1b56	0.5394796

arith.constant1 f4 [9]
0	0xbe76a011	-0.24084498
1	0xbedf3484	-0.43594754
2	0x3f937f07	1.1523141
3	0x3e8ab855	0.2709376
4	0xbebd6bd8	-0.3699634
5	0xbefe540c	-0.49673498
6	0xbe19cdc9	-0.15019907
7	0x3ed523a1	0.41628745
8	0x3d953106	0.07284741

arith.constant2 f4 [9, 10]
0	0xbc0dde4c	-0.008658957
1	0xbf14349a	-0.57892764
2	0xbf5e5d8d	-0.868615
3	0x3f6b7fbe	0.91991794
4	0x3d31b2c8	0.04338339
5	0xbccadcaa	-0.024763424
6	0xba8ce224	-0.0010748548
7	0x3f2fa9b9	0.6861835
8	0xbebcf792	-0.3690763
9	0xbe9857f8	-0.29754615
10	0xbe511253	-0.20417146
11	0x3ece83da	0.4033497
12	0x3d3da2f3	0.04629798
13	0x3f3b9e20	0.73288155
14	0xbd19cd06	-0.03754904
15	0xbeb7110b	-0.3575519
16	0xbf403f90	-0.7509699
17	0xbef9758e	-0.487225
18	0xbe2f065d	-0.17092271
19	0x3f41ec89	0.7575155
20	0x3f7d9de7	0.99069065
21	0xbe9a19ac	-0.3009771
22	0xbe3eb290	-0.18622804
23	0x3ee9aae1	0.45638183
24	0xbf4fd015	-0.81176883
25	0xbf51f74e	-0.8201798
26	0xbf8ef734	-1.116919
27	0xbf411670	-0.7542486
28	0xbf16ef7b	-0.5895917
29	0x3f3158a9	0.6927591
30	0xbf15b96d	-0.5848606
31	0x3eb6a09a	0.35669404
32	0xbf01fafd	-0.507736
33	0xbfe830a0	-1.8139839
34	0xbc1c18b7	-0.009527377
35	0x3bcef11a	0.0063153626
36	0x3e41977d	0.18905444
37	0x3f2d4684	0.67685723
38	0xbfcf7dca	-1.6210263
39	0x3f00e86f	0.50354666
40	0xbda9db4a	-0.08293779
41	0xbec7d309	-0.39028195
42	0x3d8476a7	0.06467944
43	0xbfb199f1	-1.3875104
44	0x3d6c52a2	0.057695992
45	0xbd792b92	-0.060832568
46	0x3e2c8ab8	0.16849792
47	0x3f176bee	0.5914906
48	0x3f1b045c	0.60553527
49	0xbf3b4615	-0.7315381
50	0xbfa597ae	-1.2936914
51	0x3eaaba22	0.33345133
52	0xbecf261e	-0.4045877
53	0xbf26a5f2	-0.6509696
54	0x3ee0c1ef	0.4389796
55	0xbc29878b	-0.010347257
56	0x3ef6bf37	0.4819276
57	0xbefd4511	-0.49466756
58	0x3f3968b8	0.72425413
59	0xbe7542f2	-0.23951319
60	0x3ec7ff4b	0.3906196
61	0x3f2bf995	0.67177707
62	0xbe981b99	-0.29708555
63	0xbdced467	-0.10099106
64	0x3e7de507	0.24794398
65	0xbebf7d78	-0.37400413
66	0x3d7e0a94	0.062021807
67	0x3e2dbb33	0.16965942
68	0xbfea6104	-1.8310857
69	0xbef5e692	-0.48027474
70	0xbdf222d4	-0.11823049
71	0xbfbe9ecb	-1.489221
72	0x3fb8f45f	1.4449576
73	0x3df94a59	0.12172384
74	0xbff4b442	-1.911751
75	0x3fbaa9f9	1.4583122
76	0xbd93d283	-0.07217886
77	0xbf5c4fe0	-0.8605938
78	0x3e3b3e81	0.18285562
79	0xbee31fba	-0.44360143
80	0x3e4fabcc	0.20280379
81	0xbf5704e2	-0.83991826
82	0x3f775265	0.966101
83	0xbeee6440	-0.4656086
84	0xbfeaa0a1	-1.833027
85	0xbf6b2f03	-0.9186861
86	0x3f667d35	0.900348
87	0xbfa1fd9b	-1.2655519
88	0x3f6f3495	0.9343961
89	0x3ca8a30f	0.020585565

arith.constant3 f4 [10, 20]
0	0x3e128a95	0.14310677
1	0xbb0aac4b	-0.0021159824
2	0x3ebdd9e5	0.37080303
3	0x3e3930f5	0.18085082
4	0x3e1f5842	0.15561011
5	0x3ea5ab95	0.3235747
6	0x3eb4bdd1	0.35301068
7	0xbf2ade17	-0.6674513
8	0xbe63f08e	-0.22259733
9	0x3e4f63a8	0.2025286
10	0x3e287da0	0.16454172
11	0xbe6b37be	-0.22970483
12	0x3eecd5ef	0.46256968
13	0xbe101696	-0.14071116
14	0xbf07a4bd	-0.52985746
15	0x3d6e73bb	0.058215838
16	0x3e9e4bfa	0.3091734
17	0x3e8e8f0d	0.27843514
18	0x3e84b975	0.25922742
19	0x3eaf81e8	0.34278798
20	0x3f546c05	0.82977325
21	0xbe21b301	-0.15790941
22	0x3e2b6fc6	0.16741857
23	0xbc4fc60e	-0.012681497
24	0x3dae5828	0.08512908
25	0x3e44f37c	0.19233507
26	0x3e94a32d	0.29030743
27	0x3f880f51	1.0629674
28	0x3e2e36ae	0.17013046
29	0x3f9391bc	1.152885
30	0x3e1e7f00	0.15478134
31	0x3f6d44d0	0.92683125
32	0x3ead07a9	0.33794907
33	0x3e9131df	0.2835836
34	0xbe3d9ddc	-0.1851725
35	0xbf05a27e	-0.5220107
36	0x3e72b616	0.23702273
37	0xbceadb30	-0.02866897
38	0x3e0272fa	0.12739173
39	0x3e94b25f	0.29042336
40	0xbf74c7df	-0.9561748
41	0xbe165ffa	-0.1468505
42	0xbfb3fd99	-1.4061767
43	0x3ba49443	0.005022557
44	0x3e2fe5f8	0.1717757
45	0xbef33259	-0.4749935
46	0x3d1e92fc	0.038714394
47	0x3e832b08	0.25618768
48	0xbebc2461	-0.36746505
49	0xbf2aba44	-0.6669047
50	0x3ec3c054	0.38232672
51	0x3e112ab4	0.14176446
52	0x3e9dad04	0.30796063
53	0x3ebc8993	0.3682371
54	0xbe9862dc	-0.29762924
55	0xbed722af	-0.4201865
56	0x3dd47dc9	0.10375554
57	0x3e00957d	0.12557025
58	0xbea1ca27	-0.31599542
59	0xbf6c0b0c	-0.92204356
60	0xbe670b61	-0.22562934
61	0x3f8993dc	1.0748248
62	0x3ed9d05b	0.42541775
63	0xbc0cb219	-0.008587384
64	0x3eb08d5a	0.34482843
65	0x3e41b64e	0.189172
66	0xbc28ea11	-0.010309712
67	0x3da3e35a	0.08002348
68	0xbd193f32	-0.037413783
69	0x3f86e7b4	1.053946
70	0x3e5ce556	0.2157186
71	0xbdee6035	-0.11639444
72	0x3f4712ad	0.7776287
73	0x3e88536f	0.26626155
74	0x3f802a7d	1.0012966
75	0x3fa57198	1.2925291
76	0x3e816095	0.25269
77	0x3f9d502e	1.2290094
78	0x3e484564	0.1955772
79	0x3f57f595	0.84359103
80	0xbd950355	-0.07276026
81	0xbf462c0d	-0.77410966
82	0x3d0c3b97	0.034236517
83	0x3f5ab123	0.8542654
84	0x3e8501e3	0.25978002
85	0x3d11028d	0.035402823
86	0x3f89c6ab	1.0763754
87	0x3fac6d0a	1.3470776
88	0x3facd3db	1.3502153
89	0xbe1948c0	-0.14969158
90	0x3f8d695b	1.1047777
91	0x3f5ad7b3	0.8548538
92	0x3cd76a42	0.026295785
93	0x3fccb904	1.5993962
94	0x3dfe2fcf	0.124114625
95	0x3d929205	0.07156757
96	0x3e04665d	0.12929673
97	0xbd8d0063	-0.068848394
98	0x3f1e7eeb	0.6191241
99	0x3ed2e100	0.41187286
100	0xbeeeea6a	-0.4666322
101	0x3ead3955	0.33832803
102	0x3eab20dd	0.3342351
103	0xbffb152f	-1.961584
104	0x3eb51642	0.35368544
105	0x3e74940b	0.23884599
106	0xbf77e991	-0.9684077
107	0x3f0557ab	0.52086896
108	0x3eae972f	0.3409972
109	0xbe9ddb27	-0.30831262
110	0x3f56115f	0.83620256
111	0xbf925138	-1.1431036
112	0x3ebd59c1	0.3698254
113	0x3eff57d1	0.49871686
114	0x3e5687b6	0.20950207
115	0x3ef2da67	0.47432253
116	0x3ee62f82	0.4495812
117	0x3e6bea71	0.23038651
118	0xbfda5d00	-1.7059631
119	0xbe6dc456	-0.23219427
120	0x3c9cc401	0.01913643
121	0x3dfbd0d3	0.122956894
122	0x3eaa1d2f	0.3322539
123	0x3efe938e	0.4972195
124	0x3db3a7c7	0.08772235
125	0xbe4b6006	-0.19860849
126	0xbf02ae49	-0.5104719
127	0xbe8b5416	-0.2721259
128	0xc00a97ce	-2.1655154
129	0x3e81dfc3	0.2536603
130	0x3e6ec435	0.23317035
131	0xbee97cd1	-0.4560304
132	0x3a962590	0.0011455286
133	0xbfc182d8	-1.5118055
134	0x3e4907cf	0.19631885
135	0x3e133933	0.14377289
136	0xbe02dc08	-0.12779248
137	0xbf075365	-0.52861625
138	0xbe1ecfa4	-0.15508896
139	0x3e2abe9a	0.16674271
140	0xbf16929e	-0.5881747
141	0x3f77fe7f	0.96872705
142	0xbf0e35ef	-0.55551046
143	0x3e66ddd2	0.22545555
144	0x3e840998	0.2578857
145	0xbd25ea81	-0.040506843
146	0x3fad5a5b	1.3543199
147	0x3e00df17	0.12585102
148	0x3f1d0ad2	0.61344635
149	0x3e5bb752	0.2145665
150	0x3e59bdbd	0.21263786
151	0x3f22af07	0.6354832
152	0xbe1b382c	-0.15158147
153	0x3f253be5	0.64544517
154	0xbf101a8c	-0.5629051
155	0xbf110950	-0.56654835
156	0x3eac9d36	0.33713692
157	0xbef878dc	-0.48529708
158	0x3f084541	0.53230673
159	0xbdce9d24	-0.10088566
160	0x3f0721ad	0.5278576
161	0x3ea75ce2	0.3268805
162	0x3f2ef67a	0.68344843
163	0x3dce079f	0.10060047
164	0x3f899622	1.0748942
165	0x3f51a20d	0.81887895
166	0x3d32dee6	0.043669604
167	0xbe26c676	-0.16286644
168	0x3dcf0c4b	0.101097666
169	0xbe3650af	-0.17804216
170	0x3e100eff	0.1406822
171	0x3ebeb97a	0.37250882
172	0xbf274895	-0.65345126
173	0x3e75a097	0.23987041
174	0x3f93b004	1.1538091
175	0x3e3ace2b	0.1824271
176	0xbf2d74e6	-0.677565
177	0xbf0661e5	-0.52493125
178	0xbf3a7360	-0.728323
179	0xbfa1f7ec	-1.2653785
180	0x3f2eb55d	0.6824549
181	0xbee466e3	-0.44609746
182	0x3eb6aa33	0.35676727
183	0x3ea5ccdf	0.32382867
184	0x3ed15ed1	0.40892652
185	0x3d3ece59	0.046583507
186	0x3dcbd36d	0.09952436
187	0x3f1a3fec	0.6025379
188	0xbda3f290	-0.080052495
189	0x3d084892	0.033272333
190	0xbf454f35	-0.77073985
191	0x3ecf218e	0.40455288
192	0xbd78746f	-0.060657915
193	0xbee6f4d8	-0.45108676
194	0x3e0d743a	0.13813868
195	0x3f84aacd	1.0364624
196	0x3f29d01b	0.6633317
197	0xbe27b128	-0.16376173
198	0x3f18d3b6	0.59698045
199	0x3dba2235	0.09088556

sequential_1/dense_1/MatMul f4 [20, 42]
0	0x3cf79960	0.030224502
1	0xbe9cb805	-0.30609146
2	0x3da15967	0.0787838
3	0xbeb42d0f	-0.35190627
4	0xbd0b878d	-0.03406482
5	0xbea80c18	-0.32821727
6	0xbda0498a	-0.078265265
7	0xbe8dfe8f	-0.27733275
8	0xbb7136fb	-0.0036806453
9	0xbe6f2684	-0.23354536
10	0x3d21f491	0.039539877
11	0xbeb3578e	-0.35027736
12	0xbdef89b2	-0.11696185
13	0xbe15d712	-0.14632824
14	0xbda194df	-0.07889723
15	0x3d51b638	0.051199168
16	0xbd9cfd36	-0.07665484
17	0x3e1acbd7	0.15116821
18	0x3e6a0dad	0.2285678
19	0xbed3352c	-0.41251504
20	0xbc5ee04f	-0.013603284
21	0xbcb397a2	-0.02192289
22	0x3c1f7560	0.009732574
23	0x3e84c309	0.2593005
24	0x3da439f7	0.080188684
25	0x3e7cc9c7	0.24686347
26	0x3e527c82	0.20555308
27	0xbf13bd1e	-0.57710445
28	0xbd9040ee	-0.07043634
29	0xbd77be26	-0.060484074
30	0xbd5e64ce	-0.054295354
31	0x3e8e5372	0.2779804
32	0x3d51a1d2	0.051179715
33	0x3e7ce99a	0.24698487
34	0x3d89a5da	0.06721087
35	0xbfa50555	-1.2892252
36	0xbdb12af7	-0.08650773
37	0xbf0033ab	-0.5007884
38	0xbdbdd4e5	-0.09269122
39	0x3dc2e6c9	0.09516675
40	0xbcaf043a	-0.02136432
41	0x3e2a90b3	0.16656761
42	0xbe1561a0	-0.14588022
43	0x3da7c428	0.08191711
44	0xbe6c0871	-0.23050095
45	0x3d53b1cc	0.051683232
46	0xbe0ba521	-0.1363721
47	0xbe3c6179	-0.18396558
48	0xbe4bd397	-0.19904934
49	0xbea28ead	-0.31749478
50	0xbea5ff6b	-0.3242143
51	0xbea2a757	-0.31768295
52	0xbe4c0cfa	-0.19926825
53	0x3e343851	0.17599608
54	0xbdbd1e78	-0.09234327
55	0xbc525895	-0.012838502
56	0x3cdb2c94	0.026754655
57	0xbdea7a08	-0.11449057
58	0x3ce92af3	0.028462863
59	0xbe498fd6	-0.19683775
60	0xbe9ed4f9	-0.3102186
61	0x3e2a1a89	0.16611685
62	0x3ca0f972	0.019650195
63	0xbdf3d921	-0.119066484
64	0x3e4df558	0.20113122
65	0x3d623fd3	0.05523665
66	0x3eb08096	0.34473103
67	0x3ec31155	0.3809916
68	0xbea9eb18	-0.33187175
69	0x3e8170a6	0.25281256
70	0x3d94b6dc	0.0726144
71	0xbd9a4ee6	-0.0753458
72	0x3eada704	0.33916485
73	0x3e9f3493	0.31094798
74	0x3f25b0de	0.64723
75	0x3f4c3291	0.7976466
76	0xbeb297d4	-0.3488146
77	0x3e99178a	0.2990077
78	0xbcb93f19	-0.022613095
79	0x3dad0693	0.084485196
80	0x3e47a55d	0.19496675
81	0x3edbdd0a	0.42942077
82	0x3e8e20aa	0.27759296
83	0x3f52e0ca	0.8237425
84	0xbe97bf2a	-0.29638034
85	0x3e304afc	0.17216104
86	0x3f87e1ac	1.0615745
87	0x3db18d0d	0.086694814
88	0x3f1177ac	0.5682323
89	0xbd87e06b	-0.06634601
90	0x3ed5d889	0.41766766
91	0xbeed9e16	-0.46409672
92	0x3ea668cc	0.3250183
93	0xbeebb8a2	-0.460393
94	0xbeb74796	-0.35796803
95	0xbeac2f7a	-0.33629972
96	0xbda5a50b	-0.0808812
97	0xbeaa1983	-0.3322259
98	0x3b4e896d	0.0031515018
99	0xba07bc9f	-0.0005177948
100	0xbd12d3c9	-0.035846505
101	0x3e7268b7	0.23672758
102	0xbeca1230	-0.39467
103	0xbf1af604	-0.6053164
104	0x3e5664e1	0.2093692
105	0xbddc10fc	-0.10745427
106	0xbd935bb3	-0.071952246
107	0x3ea5859b	0.32328495
108	0xbe963394	-0.29336226
109	0x3ec88e7d	0.3917121
110	0xbe1d0b04	-0.15336233
111	0xbf4b8dd9	-0.7951332
112	0x3ea75da6	0.32688636
113	0x3d6d8186	0.05798485
114	0xbc66971e	-0.014074115
115	0x3ef0701e	0.4696054
116	0xbe8b3717	-0.27190468
117	0x3eec64bf	0.46170613
118	0x3e6a8481	0.22902109
119	0xbf59153d	-0.8479803
120	0x3f037b38	0.5135989
121	0x3e16859d	0.14699407
122	0x3e2e7359	0.17036189
123	0x3f0566e4	0.52110124
124	0xbe1815cd	-0.14852066
125	0x3f09fbb6	0.53899705
126	0x3e8338d2	0.25629288
127	0xbe82ae08	-0.255234
128	0xbbbd7782	-0.0057820687
129	0x3ce1f6ad	0.027583444
130	0xbda1dcc3	-0.07903435
131	0xbbd85c22	-0.00660278
132	0xbd995529	-0.07486946
133	0xbd88697a	-0.06660743
134	0xbe248330	-0.16065669
135	0xbdf11d45	-0.11773161
136	0x3e1004e1	0.14064361
137	0x3b57d387	0.0032932477
138	0xbc07e17d	-0.008293507
139	0x3c9acdc2	0.018896941
140	0xbd9d7d5b	-0.07689925
141	0x3d9a7263	0.07541349
142	0xbdf3492a	-0.11879189
143	0x3dfc45aa	0.12317975
144	0x3ec70688	0.3887217
145	0x3bdfa6aa	0.006825288
146	0xbd0582df	-0.03259551
147	0xbd776b5e	-0.060405128
148	0xbcef731c	-0.029229693
149	0xbea618b8	-0.32440734
150	0xbc7c6733	-0.015405464
151	0xbf030c9d	-0.5119112
152	0x3e0ef318	0.1395992
153	0x3c905be1	0.017621936
154	0xbd264af9	-0.040598843
155	0xbe0ad586	-0.13558015
156	0xbc94dffa	-0.018173207
157	0xbf139dec	-0.57662845
158	0x3d4e1dd8	0.05032143
159	0xbf3a7e54	-0.7284901
160	0x3d9e0ecc	0.07717666
161	0x3c8701fe	0.016480442
162	0xbda30972	-0.07960786
163	0xbe82c758	-0.25542712
164	0xbcb0b48f	-0.021570472
165	0xbf51aa1b	-0.81900185
166	0x3d26aebf	0.040693995
167	0xbf89e031	-1.0771543
168	0xbdf59890	-0.119919896
169	0x3e99788e	0.29974788
170	0x3e626d94	0.22112113
171	0xbfe0d8aa	-1.7566121
172	0x3d6d4966	0.057931326
173	0xbf88ab6a	-1.0677311
174	0x3bf88bd3	0.0075850277
175	0xbf3865fb	-0.7203061
176	0xbf09c869	-0.53821427
177	0xbee86953	-0.45392856
178	0xbf21d337	-0.63212913
179	0xbe802358	-0.25026965
180	0xbe32a9da	-0.17447606
181	0xbe1b4cc2	-0.15166
182	0x3db9b0da	0.09066935
183	0x3d42cd3f	0.04755902
184	0x3dc93503	0.09824564
185	0x3e03134c	0.1280033
186	0xbf14e63b	-0.58163804
187	0xbdb6f01d	-0.08932517
188	0xbc9d8676	-0.019229155
189	0xbdcdca08	-0.100483
190	0x3e3068b4	0.17227441
191	0xbc105bc5	-0.008810942
192	0x3e55eee6	0.20891914
193	0xbd1ba303	-0.037997257
194	0xbec7ae5a	-0.39000207
195	0x3ce65c0d	0.028120065
196	0x3c7dd7ab	0.015493314
197	0xbd80a35d	-0.06281159
198	0x3e4e3ab6	0.20139584
199	0x3d66e76a	0.056373037
200	0x3e79ed49	0.24406923
201	0x3c955958	0.018231079
202	0xbd49baa8	-0.049250275
203	0x3e242b83	0.16032223
204	0x3e0d7be5	0.13816793
205	0x3d156fa6	0.03648343
206	0x3e5edaaa	0.21763101
207	0x3d8bfb03	0.06834986
208	0x3e90ed1e	0.28305906
209	0x3ca61c80	0.020277262
210	0xbe9ce7f5	-0.3064572
211	0xbe1e57ec	-0.15463227
212	0x3e7a5dba	0.24449816
213	0xbfece5c1	-1.8507615
214	0x3d9fbd63	0.077997945
215	0xbf8e44eb	-1.1114782
216	0x3e700af3	0.23441677
217	0xbf36d107	-0.714127
218	0x3e9920e7	0.29907915
219	0xbf32de4a	-0.69870436
220	0xbf739551	-0.95149714
221	0xbe65d8a9	-0.2244593
222	0xbcaf3f05	-0.021392355
223	0xbe94db23	-0.29073438
224	0x3e15ccc7	0.14628898
225	0xbeb1e82c	-0.34747446
226	0x3e547f8a	0.20751777
227	0xbead3c98	-0.33835292
228	0xbf677231	-0.9040862
229	0xbca56f08	-0.020194545
230	0x3e6ee5a1	0.23329784
231	0xbc2bed07	-0.010493523
232	0x3e4709a3	0.1943727
233	0x3e080944	0.13284785
234	0xbd97d5d1	-0.07413829
235	0x3e30de53	0.1727231
236	0xbf07bb9f	-0.5302066
237	0xbdc4e41c	-0.09613821
238	0x3ecec502	0.4038468
239	0x3cb83ff6	0.022491436
240	0x3e3caee2	0.18426087
241	0x3e356554	0.17714435
242	0xbe5ef6f2	-0.2177389
243	0x3e218fc8	0.15777504
244	0x3c2d118f	0.010563268
245	0xbda75c40	-0.08171892
246	0x3f1751db	0.59109277
247	0xbd5968ac	-0.05307834
248	0x3ebba9fb	0.36653122
249	0x3dc74f7a	0.09731956
250	0xbdf7577a	-0.12077232
251	0x3e0e5ade	0.1390185
252	0x3e5990f4	0.21246701
253	0x3e5cca74	0.21561605
254	0x3adfb65c	0.0017067897
255	0x3f411698	0.754251

sequential_1/dense_1/Relu;sequential_1/dense_1/BiasAdd f4 [20]
0	0xbf5c269c	-0.85996413
1	0xbece70fb	-0.40320572
2	0xbe381e4e	-0.1798031
3	0xbf3732d1	-0.71561915
4	0xbf70c039	-0.9404331
5	0xbf57d635	-0.8431123
6	0xbebf5978	-0.37372947
7	0xbf75bc09	-0.95990044
8	0xbf0945c3	-0.5362207
9	0xbf3f952f	-0.7483701
10	0xbf778b5f	-0.9669704
11	0xbf7db6ce	-0.9910706
12	0x3e64ead7	0.2235521
13	0xbf77376a	-0.9656893
14	0xbf56655a	-0.837484
15	0x3d873ddc	0.066035956
16	0xbeb4e446	-0.3533041
17	0x3f97d0d9	1.186061
18	0x3c4fd036	0.012683919
19	0x3f5a9ee7	0.85398716
