model/point_history_classifier/point_history_classifier.tflite (tflite, 6432 bytes, 6 tensors)

arith.constant f4 [10]
-0.12220966 0.41206524 0.37585583 -0.17111135 0.2873699 0.330434 -0.107825674 -0.08077729
0.52363724 -0.27009082
00000000: 0f49 fabd 37fa d23e 2d70 c03e d037 2fbe
00000010: 2622 933e a52e a93e b5d3 dcbd 906e a5bd
00000020: 170d 063f 5849 8abe

arith.constant1 f4 [3]
0.21716726 -0.2013137 -0.22269
00000000: 1861 5e3e 2e25 4ebe d908 64be

arith.constant2 f4 [3, 10]
-0.21086708 0.7208572 1.2226344 -1.4125842 1.1375684 0.9710904 -0.24546337 -1.187455
1.0148822 -1.4487922 -0.23336814 -0.91924524 -1.1351923 1.3026211 -0.42409474 -0.3943772
-0.06416027 1.4918832 -1.4123118 1.2326276 0.17574562 -0.82118374 -0.52328473 -1.2692606
-0.96151894 -1.0205292 0.31684133 -1.4604602 -0.36800182 -0.52615863
00000000: 8aed 57be 198a 383f 497f 9c3f 8fcf b4bf
00000010: d79b 913f 6199 783f c05a 7bbe 87fe 97bf
00000020: a9e7 813f 0672 b9bf 0ff8 6ebe a853 6bbf
00000030: fb4d 91bf 4abc a63f f222 d9be cfeb c9be
00000040: 7666 83bd 07f6 be3f a2c6 b4bf bec6 9d3f
00000050: a9f6 333e 1939 52bf fdf5 05bf 2277 a2bf
00000060: 1b26 76bf b3a0 82bf 0739 a23e 5cf0 babf
00000070: bc6a bcbe 55b2 06bf

arith.constant3 f4 [10, 24]
-0.04421187 -0.4720981 -0.039148074 -0.45200366 -0.3831516 -0.2476079 -0.14043082 -0.17867446
-0.19469933 0.18637216 -0.083998345 -0.32469338 -0.042505693 -0.41582277 -0.1822976 0.21919699
-0.005034923 0.26360205 0.019948497 -0.23937403 -0.17924175 0.1856499 -0.4257501 0.19084702
-0.58648556 0.009535476 -0.42241862 0.5048992 -0.56913924 -1.054421 -0.71951324 0.2911923
-1.1553491 -0.9136047 0.49813023 -0.82194775 -1.17006 -1.32403 0.31137472 0.6070567
-0.83201903 -0.380323 0.19780865 -1.1133442 -0.06633538 0.23599891 -1.139892 0.33564076
-1.076824 0.32526156 -0.77308106 -0.12390691 -0.71124995 -0.9582539 -0.5237204 0.10138327
-0.7181235 -1.2096592 0.35169435 -1.092558 -0.7400227 -0.44988036 0.28334388 0.48640716
-0.62138003 -1.0790411 0.086637996 -1.2158803 0.29694888 0.35850686 -1.2347356 -0.009178821
0.5355344 0.20336775 0.71319485 0.34779844 0.8818861 0.5246006 0.46967325 0.6102094
0.65198624 0.4589309 0.6838774 0.68614364 0.82915235 0.6347368 0.032027207 0.37744224
0.7614306 0.6560498 0.046375986 0.6418913 0.45467466 0.5771388 0.58697045 0.197161
-0.9115319 0.20059048 -0.78863496 0.49296474 -1.0315319 -0.8068911 -0.49499467 0.48285377
-1.0493163 -0.7472347 0.5803062 -0.38494232 -0.4544429 -1.1388175 0.48166367 0.5815651
-0.891758 -1.0090208 0.3254244 -0.9102375 0.41774404 0.42947978 -0.7470735 0.57027495
-0.97005653 0.54754096 -1.134126 0.32324034 -0.823661 -0.8293016 -1.0697595 0.49231082
-1.0287551 -0.4310521 0.54118943 -0.8567216 -1.0743914 -1.1071018 0.56802845 -0.087649874
-1.1714585 -1.0253191 0.5317852 -0.6712432 0.6827842 0.23714402 -1.0729475 0.37396523
0.2710102 -0.30949333 -0.22638287 0.035802756 -0.42102143 -0.24113524 0.33562252 -0.29266134
-0.3028635 -0.34074923 0.27587584 -0.42244974 -0.2110892 0.13646595 -0.030664712 -0.39561236
0.102543436 -0.10659851 -0.0752293 0.26107478 -0.124215156 -0.12517123 0.048874766 -0.33663782
1.1790032 0.41079605 0.57398635 0.2298604 0.7328367 0.71503365 0.8055207 -0.024941664
0.500739 0.8138297 0.23032938 0.31946716 0.63166285 0.7085321 0.46918765 0.17398743
0.6366009 0.91754967 0.66893375 0.5341744 -0.06765841 0.20016897 0.6324839 0.6224777
-0.65830106 0.22388607 -1.1765403 0.30980167 -0.51900405 -0.7687112 -1.0203745 0.050952766
-0.7354863 -0.42116186 -0.13324551 -0.8059226 -1.0486097 -0.67758274 -0.12701696 -0.015846878
-0.70169306 -1.2007488 0.20261788 -0.44589597 0.05159369 0.18403426 -1.053653 0.18102267
0.78519315 0.2643064 0.6692166 0.35413006 1.0269711 0.50624657 0.6535641 0.2677962
0.8351681 1.0727065 0.32516167 0.7690685 0.93760335 1.1744179 0.50637645 0.24329741
0.703273 0.57048255 0.1445045 0.5574529 0.4456631 0.2150366 0.5710397 0.16360639
00000000: 8117 35bd d8b6 f1be bb59 20bd 066d e7be
00000010: 722c c4be ed8c 7dbe 19cd 0fbe 70f6 36be
00000020: 435f 47be 58d8 3e3e 5307 acbd 363e a6be
00000030: 731a 2ebd b9e6 d4be 39ac 3abe 2d75 603e
00000040: fffb a4bb d9f6 863e 086b a33c 771e 75be
00000050: 268b 37be 021b 3e3e ebfb d9be 676d 433e
00000060: eb23 16bf af3a 1c3c 4147 d8be 1341 013f
00000070: 1cb3 11bf 44f7 86bf 0532 38bf 2817 953e
00000080: 7be2 93bf ffe1 69bf ed0a ff3e 2b6b 52bf
00000090: 87c4 95bf d179 a9bf 826c 9f3e 1168 1b3f
000000a0: 33ff 54bf b2b9 c2be 5a8e 4a3e 1082 8ebf
000000b0: d8da 87bd b3a9 713e fbe7 91bf 1bd9 ab3e
000000c0: 5ed5 89bf af88 a63e a4e8 45bf e8c2 fdbd
000000d0: 7a14 36bf 2150 75bf 8a12 06bf 08a2 cf3d
000000e0: f1d6 37bf 1dd6 9abf 4811 b43e f1d8 8bbf
000000f0: 2172 3dbf b856 e6be 7312 913e 5c0a f93e
00000100: c312 1fbf 051e 8abf 436f b13d f7a1 9bbf
00000110: af09 983e 368e b73e d10b 9ebf c462 16bc
00000120: c818 093f a33f 503e f093 363f a312 b23e
00000130: 4ac3 613f 3a4c 063f 0379 f03e af36 1c3f
00000140: 92e8 263f fef8 ea3e 9712 2f3f 1ca7 2f3f
00000150: 5443 543f 1c7e 223f f62e 033d 1c40 c13e
00000160: 1eed 423f e1f2 273f bff4 3d3d fd52 243f
00000170: 1ecb e83e 5ebf 133f b243 163f 93e4 493e
00000180: 285a 69bf 9767 4d3e fbe3 49bf e065 fc3e
00000190: 3d09 84bf 6a90 4ebf f16f fdbe 9c38 f73e
000001a0: ff4f 86bf c64a 3fbf f28e 143f 2917 c5be
000001b0: bdac e8be c6c4 91bf 9f9c f63e 73e1 143f
000001c0: 414a 64bf 9827 81bf 079e a63e 5305 69bf
000001d0: 8ce2 d53e c6e4 db3e 3540 3fbf 8afd 113f
000001e0: a055 78bf a52b 0c3f 0a2b 91bf c27f a53e
000001f0: 73db 52bf 1c4d 54bf e1ed 88bf 2a10 fc3e
00000200: 3fae 83bf dcb2 dcbe 648b 0a3f 1b52 5bbf
00000210: a885 89bf 83b5 8dbf 506a 113f c781 b3bd
00000220: 5af2 95bf a83d 83bf 1323 083f 98d6 2bbf
00000230: f2ca 2e3f e2d5 723e 5856 89bf 5f78 bf3e
00000240: d9c1 8a3e e975 9ebe e9d0 67be e9a5 123d
00000250: 1f90 d7be 28ec 76be b7d6 ab3e b5d7 95be
00000260: ed10 9bbe af76 aebe 993f 8d3e 554b d8be
00000270: c427 58be bbbd 0b3e 9034 fbbc b48d cabe
00000280: 4b02 d23d 5250 dabd d211 9abd 98ab 853e
00000290: 8464 febd e32c 00be e830 483d cb5b acbe
000002a0: 94e9 963f dc53 d23e c5f0 123f 8660 6b3e
000002b0: 309b 3b3f 720c 373f 9b36 4e3f 7652 ccbc
000002c0: 6e30 003f 2557 503f 77db 6b3e 3391 a33e
000002d0: a8b4 213f 5c62 353f 5d39 f03e c329 323e
000002e0: 47f8 223f 89e4 6a3f 3e3f 2b3f a7bf 083f
000002f0: 7e90 8abd 18f9 4c3e 77ea 213f b35a 1f3f
00000300: 6b86 28bf 6442 653e df98 96bf 539e 9e3e
00000310: 73dd 04bf 42ca 44bf a29b 82bf d9b3 503d
00000320: d548 3cbf 87a2 d7be 8371 08be f250 4ebf
00000330: d838 86bf 1076 2dbf bc10 02be 50d1 81bc
00000340: 28a2 33bf 23b2 99bf 107b 4f3e 7a4c e4be
00000350: e853 533d 7a73 3c3e 1ade 86bf 025e 393e
00000360: 6b02 493f 2b53 873e c751 2b3f 8950 b53e
00000370: ca73 833f 6099 013f fa4f 273f 951c 893e
00000380: 94cd 553f 724e 893f 977b a63e ace1 443f
00000390: c606 703f 5353 963f e3a1 013f f522 793e
000003a0: b309 343f 250b 123f fdf8 133e 3cb5 0e3f
000003b0: f42d e43e 8e32 5c3e a82f 123f 6f88 273e

sequential_5_1/dense_15_1/MatMul f4 [24, 32]
0.19538045 0.14614403 0.2786631 0.036243472 0.58226675 0.113205366 0.24032041 0.28089726
0.9499906 0.13567394 0.2968838 -0.111010894 0.19912422 -0.13010235 0.6196104 -0.27260584
0.40704992 -0.2852963 0.79001915 0.808883 0.40793836 0.6338006 0.5559837 -0.016721267
0.4383398 -0.36387008 0.48981795 0.1198815 0.36535594 0.18455206 0.66412616 -0.12406479
0.02903828 -0.26439363 0.28946492 -0.16673481 -0.08117844 -0.15030795 -0.13192588 -0.11419034
-0.060806215 0.1467584 -0.26790214 0.017281057 -0.3835769 0.18401231 -0.17169252 0.15904322
-0.3147323 0.09555429 0.10756322 0.060435582 -0.114153996 0.14239463 -0.108957686 0.14799944
0.02150051 -0.25479585 -0.23652932 0.0864824 0.13223635 -0.082866184 -0.30100128 -0.14455946
0.21847373 0.020276338 -0.012543816 -0.09622886 0.3011618 0.14550507 0.08329648 -0.48228616
-0.38308167 -0.619929 -0.7878325 -0.7141659 -0.3716763 -0.6711012 -0.4170621 -0.7588232
-0.7351716 -0.459354 -0.506929 -0.26071906 -0.023643997 -0.42370424 0.13263127 -0.2629068
0.010637881 0.083541095 0.22277533 -0.5306473 -0.13310058 -0.501014 0.19776095 -0.37379643
0.012344718 -0.20274922 -0.04319337 0.25668326 -0.09600743 0.24250127 -0.31566164 -0.046392176
-0.019664072 0.08453757 0.0042848256 -0.047964875 -0.2566159 0.1140409 -0.07292509 0.21684141
-0.30986065 -0.029220423 0.08193307 0.026030792 -0.0101970285 -0.14971499 -0.16510068 0.040651783
0.06947388 0.1269724 -0.15551351 -0.18091477 -0.1367851 -0.10625625 -0.04796721 0.034057662
0.1445112 -0.19600828 -0.2812753 -0.46634427 0.04096439 0.35191336 -0.18938532 -0.43119413
0.5674556 0.17333111 -0.00076525466 -0.0491981 0.5318715 -0.30121392 0.39273658 -0.037273444
0.97737783 0.23860815 0.8077499 0.49090526 0.7187075 0.27775434 0.1648755 0.2931541
0.62089545 0.13961703 0.20964788 -0.19021806 0.30963442 -0.31688142 -0.029414995 -0.017686091
-0.23995617 -0.3030094 0.05918901 -0.30488256 -0.3578501 -0.60676485 -0.26661804 0.056700338
-0.2821232 -0.28574774 -0.05340423 -0.55214465 -0.3732717 -0.1581538 -0.22380817 -0.13167466
-0.12091129 -0.022105895 -0.07212101 -0.12223141 -0.65909636 -0.4884436 -0.53279454 -0.49026856
-0.34515253 -0.0859061 -0.53749806 -0.15863457 -0.2758081 -0.5789965 -0.68499416 -0.6291516
0.01983291 0.021838695 -0.5038172 -0.3169523 -0.37622616 -0.4479874 -0.41574836 -0.028073614
-0.08198527 -0.05293375 -0.35781354 -0.5686123 -0.16608427 -0.14197074 0.07785411 -0.10635614
0.056338754 -0.4892985 -0.39557222 -0.64318115 -0.19107956 -0.6719615 -0.5983097 -0.67068636
-0.17751834 -0.6343592 -0.27233997 -0.5600686 -0.0880873 -0.027226726 -0.6461196 -0.54866594
-0.32643437 0.25582498 -0.32867563 -0.19448894 -0.013001944 0.2782531 -0.24363936 0.16982631
0.063018866 0.20657326 0.0660235 -0.0807592 0.25316554 -0.23510985 0.22020297 -0.12374089
-0.39068878 0.12714913 -0.027691562 0.19394428 -0.09938081 0.21280918 -0.32630667 0.17707115
-0.08291323 0.37851983 -0.059946205 0.00595374 -0.0006964763 0.13451703 0.11764215 0.0027655973
00000000: d011 483e c8a6 153e eeac 8e3e 0974 143d
00000010: 6f0f 153f 37d8 e73d 8e16 763e c4d1 8f3e
00000020: 9532 733f 1cee 0a3e 2701 983e ae59 e3bd
00000030: 38e7 4b3e 8d39 05be ca9e 1e3f fe92 8bbe
00000040: d968 d03e 5b12 92be b23e 4a3f f512 4f3f
00000050: 4cdd d03e c240 223f f354 0e3f 0afb 88bc
00000060: 136e e03e 2e4d babe 6bc9 fa3e 6f84 f53d
00000070: ef0f bb3e 37fb 3c3e 2c04 2a3f ae15 febd
00000080: b0e1 ed3c 9a5e 87be bf34 943e 88bc 2abe
00000090: e240 a6bd 54ea 19be 9417 07be a0dc e9bd
000000a0: f00f 79bd d647 163e 782a 89be 0191 8d3c
000000b0: 3164 c4be b96d 3c3e 2ad0 2fbe 3adc 223e
000000c0: 9824 a1be f8b1 c33d 1b4a dc3d 4d8b 773d
000000d0: 92c9 e9bd e6cf 113e 3525 dfbd 2a8d 173e
000000e0: d621 b03c 9a74 82be be34 72be af1d b13d
000000f0: f768 073e bfb5 a9bd d71c 9abe 6507 14be
00000100: 94b7 5f3e 901a a63c 9484 4dbc a313 c5bd
00000110: e131 9a3e 48ff 143e 5897 aa3d 36ee f6be
00000120: 4823 c4be abb3 1ebf 64af 49bf 94d3 36bf
00000130: 5b4c bebe 4acd 2bbf 2a89 d5be 3d42 42bf
00000140: 3534 3cbf 7330 ebbe 19c6 01bf f87c 85be
00000150: 0eb1 c1bc c3ef d8be 7ed0 073e b89b 86be
00000160: 824a 2e3c 9817 ab3d 371f 643e 80d8 07bf
00000170: 854b 08be 7442 00bf d981 4a3e 3f62 bfbe
00000180: 8041 4a3c 7e9d 4fbe 88eb 30bd fd6b 833e
00000190: 8b9f c4bd 4152 783e 679e a1be b905 3ebd
000001a0: 8c16 a1bc 0922 ad3d b967 8c3b d176 44bd
000001b0: 2963 83be 468e e93d c059 95bd ad0b 5e3e
000001c0: 0ea6 9ebe ab5f efbc 87cc a73d 873e d53c
000001d0: 7011 27bc e34e 19be 2710 29be 7c82 263d
000001e0: 5248 8e3d 0e05 023e ef3e 1fbe b941 39be
000001f0: 6511 0cbe e09c d9bd 4479 44bd 0c80 0b3d
00000200: befa 133e 65b6 48be 5103 90be adc4 eebe
00000210: 47ca 273d fd2d b43e 3aee 41be 7ac5 dcbe
00000220: c544 113f b67d 313e 5f9b 48ba f283 49bd
00000230: bb28 083f b638 9abe c514 c93e 0aac 18bd
00000240: 6f35 7a3f b255 743e b3c8 4e3f ef57 fb3e
00000250: 37fd 373f d135 8e3e 20d5 283e 4b18 963e
00000260: 01f3 1e3f c4f7 0e3e efad 563e 86c8 42be
00000270: 6788 9e3e 483e a2be b7f7 f0bc 6ce2 90bc
00000280: 12b7 75be 0c24 9bbe 2d70 723d 9119 9cbe
00000290: 2138 b7be f154 1bbf 2982 88be 9d3e 683d
000002a0: 7472 90be 874d 92be 65be 5abd 5a59 0dbf
000002b0: 781d bfbe 12f3 21be f82d 65be b9d5 06be
000002c0: 57a0 f7bd 6c17 b5bc 2eb4 93bd 7654 fabd
000002d0: 8aba 28bf 4815 fabe 3965 08bf 7b04 fbbe
000002e0: d5b7 b0be 8aef afbd 7999 09bf 1a71 22be
000002f0: b836 8dbe 1d39 14bf c75b 2fbf 1410 21bf
00000300: a078 a23c 10e7 b23c 2afa 00bf 9247 a2be
00000310: b7a0 c0be 9b5e e5be f8dc d4be a3fa e5bc
00000320: e5e7 a7bd 0fd1 58bd 5633 b7be 9390 11bf
00000330: ff11 2abe c760 11be fa71 9f3d 3fd1 d9bd
00000340: 77c3 663d 5585 fabe 7188 cabe 85a7 24bf
00000350: 5caa 43be ab05 2cbf d32a 19bf 1ab2 2bbf
00000360: 5ec7 35be 5d65 22bf 2570 8bbe a860 0fbf
00000370: 1d67 b4bd 950a dfbc 1868 25bf 5f75 0cbf
00000380: 6822 a7be 7efb 823e 2c48 a8be 1c28 47be
00000390: 1b06 55bc 3177 8e3e 997c 79be f3e6 2d3e
000003a0: 0910 813d f187 533e 5437 873d 1465 a5bd
000003b0: ea9e 813e a3c0 70be e37c 613e dd6b fdbd
000003c0: 5c08 c8be 6233 023e 6ad9 e2bc 5499 463e
000003d0: 2b88 cbbd a6ea 593e ab11 a7be 2452 353e
000003e0: 69ce a9bd 5acd c13e 278a 75bd 9717 c33b
000003f0: bc93 36ba d5be 093e 5eee f03d 063f 353b

sequential_5_1/dense_15_1/Relu;sequential_5_1/dense_15_1/BiasAdd f4 [24]
-0.03559467 0.36516106 -0.022419915 0.27028632 -0.026537571 -0.04316336 -0.05726084 0.3117255
-0.03721699 -0.044166777 0.2619309 -0.0510203 -0.023245065 -0.03341124 0.30784056 0.23554905
-0.045098417 -0.026315106 0.3975336 -0.034609895 0.2443695 0.31601068 -0.017085329 0.30071774
00000000: b7cb 11bd 64f6 ba3e f8a9 b7bc f862 8a3e
00000010: 5265 d9bc 10cc 30bd 588a 6abd 7c9a 9f3e
00000020: d870 18bd 39e8 34bd cf1b 863e a9fa 50bd
00000030: 6f6c bebc 39da 08bd 479d 9d3e c533 713e
00000040: 1eb9 38bd c792 d7bc 8689 cb3e 1bc3 0dbd
00000050: 003c 7a3e 27cc a13e 88f6 8bbc adf7 993e
