model/point_history_classifier/point_history_classifier.tflite (tflite, 6504 bytes, 6 tensors)

arith.constant f4 [10]
000000 ac 3f 9a 3d d5 4d 8a 3f 1a ca 3f 3f de 1b 7b bd
       0.07531676 1.0805002 0.7491776 -0.061305873
000010 9f ea 4c 3e 22 9d 30 3e fa f8 91 3f 12 02 26 3f
       0.20011376 0.17247441 1.1404107 0.6484691
000020 81 08 1b be 14 5e dd 3d
       -0.15139963 0.108089596

arith.constant1 f4 [5]
000000 01 d0 f0 3e 72 f9 07 3f 78 c1 64 3b 8e 2c 86 be
       0.47033694 0.53115 0.0034905355 -0.26205868
000010 68 9e 3a bf
       -0.7289796

arith.constant2 f4 [5, 10]
000000 16 c9 56 c0 a9 a0 3a bd 81 7b 43 40 4b f0 14 c0
       -3.3560233 -0.045563374 3.054413 -2.3271663
000010 7e 11 46 be 3c 1b 75 c0 41 bd 8e 3f 37 31 7a 3f
       -0.1934261 -3.8297873 1.1151506 0.97731346
000020 0f 8f 60 c0 78 13 4a c0 89 1e 84 3e 8e e0 95 3f
       -3.5087316 -3.1574383 0.25804546 1.1709154
000030 66 15 e7 bf c9 80 b8 3f f8 96 a9 3f c9 45 d1 bc
       -1.8053405 1.4414302 1.3249197 -0.025545971
000040 14 86 94 bf 4f c4 fe 3e e3 f2 e2 bf 9e 1d 6f 3e
       -1.1603417 0.49759147 -1.7730373 0.23351142
000050 ef a6 49 bb f2 11 0e bf 4d 61 17 c0 bf d2 40 3f
       -0.0030769666 -0.5549613 -2.3653138 0.75321573
000060 e2 ad 9c bf db ac 1c 3f cb ea 89 3f ac f0 c0 3f
       -1.2240565 0.61201257 1.0774778 1.5073447
000070 6f 26 16 3f 3a 8f ed 3e 3f d7 f7 3e 08 2f 3b 3e
       0.58652395 0.46398336 0.48406407 0.1827966
000080 e1 ab a9 bf 24 38 3e bf f2 8e fa 3e 9d b1 2e 3f
       -1.3255578 -0.74304414 0.48937184 0.68239766
000090 88 cc da 3e 4e ba a3 bf fc 52 e2 3e 2d e1 29 3f
       0.4273417 -1.2791231 0.44203937 0.66359216
0000a0 b6 d7 6e 3e 6d fd 30 bf 29 8e b6 bb fb 5a ad bf
       0.23324475 -0.691367 -0.005571146 -1.354339
0000b0 52 2f ab 3e 15 7c bf 3e b3 6c 08 bf bc 64 b4 bf
       0.3343454 0.37399355 -0.5329086 -1.4093242
0000c0 02 09 32 3f 0e 66 83 3f
       0.69544995 1.026552

arith.constant3 f4 [10, 24]
000000 51 af 23 3f 1a 6b 82 3f b9 d6 42 3e c7 3c ab 3f
       0.63939387 1.0188935 0.19027223 1.3377923
000010 1e 13 5b 3f 41 91 5e 3f 5f 57 22 3f e3 27 fa 3e
       0.85576046 0.8694039 0.6341457 0.48858556
000020 f8 1c 74 3f 2a 40 07 3e ea 4b 17 3f 21 6f 9b 3e
       0.953567 0.1320807 0.5910021 0.30358222
000030 c2 e9 3f 3f 93 62 5a 3f 05 5f 0b 3f d2 fe 07 3f
       0.7496606 0.8530666 0.54441863 0.531232
000040 f0 85 a0 3f 13 22 12 3f 97 02 54 3f a0 19 51 3f
       1.2540874 0.57083243 0.8281645 0.81679726
000050 13 6f 20 bd 4d 3a 64 3e 73 fe 1a 3f c3 15 12 3f
       -0.03916843 0.22287865 0.6054451 0.57064456
000060 be 31 53 bf 8b 16 0d 3f ff 2a aa 3e ef 8d 17 3e
       -0.82497776 0.5511252 0.33235928 0.14800237
000070 f5 fe e2 3e a6 51 50 3f 4f f3 33 bf 0b e0 59 bf
       0.44335142 0.81374586 -0.70293134 -0.8510749
000080 51 bb 8c 3f 47 cd 9b 3f 7a df cb 3e bc 65 a8 be
       1.0994664 1.2172021 0.39818937 -0.32890117
000090 a3 a0 ca 3e a2 e3 14 3e 1f 5a 46 bf 9a ad 73 3f
       0.3957568 0.1453996 -0.77481264 0.9518677
0000a0 04 ee 53 3f 77 84 29 be 62 8d 73 bf 0d 48 73 3f
       0.8278506 -0.16554438 -0.9513761 0.95031816
0000b0 93 79 ae 3e 24 83 43 3e 6c cc c5 be bb 8d 37 be
       0.3407713 0.19092995 -0.38632524 -0.1792516
0000c0 1e 5d 94 bf 29 d3 ee bf 0a ef d9 3e e0 5b f9 bf
       -1.1590917 -1.8658191 0.42565185 -1.9481163
0000d0 29 e9 18 c0 a1 62 1e c0 f3 20 dd bf 93 ca 0e c0
       -2.389231 -2.4747698 -1.727568 -2.2311141
0000e0 31 95 3c c0 0c a1 1b be 3d 5a 35 c0 7c 7b bc 3e
       -2.946606 -0.15198153 -2.8336327 0.3681296
0000f0 82 69 25 c0 82 e3 32 c0 c5 19 c5 bf 7d 19 17 c0
       -2.5845647 -2.795136 -1.5398489 -2.3609307
000100 08 24 18 c0 82 91 21 c0 6f 1a a8 bf 52 d5 18 c0
       -2.3771992 -2.524506 -1.3133067 -2.38802
000110 98 60 81 3e 1e 6c 3d c0 5a 59 0d c0 52 fc cc bf
       0.25269008 -2.959724 -2.2085786 -1.6014502
000120 1e 6b de 3e 14 ed f3 3e 1a 87 13 3f 6d b2 1e 3f
       0.434411 0.47641814 0.57628024 0.61991006
000130 af 43 ec 3e 36 02 03 bf 50 c5 55 be 2d 79 36 3d
       0.46145388 -0.5117525 -0.2087605 0.044549156
000140 17 88 c0 3d 20 58 11 c0 0c e0 12 bf 4c 53 04 3f
       0.09400957 -2.2710037 -0.5737312 0.516896
000150 27 2a 8a be be 38 20 3f 5d a6 4a 3e d1 72 3c be
       -0.26985285 0.6258658 0.19790025 -0.18403174
000160 c5 27 77 3e 32 51 a3 bf 1a 2a 19 3b f2 86 27 bf
       0.24136265 -1.2759154 0.0023371042 -0.65440285
000170 88 4a 17 3f 57 fd 9b bf fb ff 08 3f 6c c4 66 be
       0.590981 -1.2186688 0.53515595 -0.22535866
000180 9b e3 37 3d 5a 25 8e 3f 89 c9 3a 3e 77 3d 08 3f
       0.044894796 1.1105149 0.18240942 0.5321879
000190 16 6f d2 3e ae 37 f1 3a 90 2a ec 3d d3 59 0a bd
       0.41100377 0.0018403435 0.11531556 -0.03377707
0001a0 f7 da ec bf 80 b2 6b 3d 9e a8 16 3f bf f6 f3 3d
       -1.8504323 0.057543278 0.5885104 0.119122975
0001b0 26 6d f9 3e 1c 6b fb 3e fe 5e 36 3d ad 12 32 3f
       0.48716086 0.49105155 0.044524185 0.69559747
0001c0 64 b5 a5 bf 0b 5d 2d 3e 62 99 80 bd d3 a5 03 c0
       -1.2945981 0.16930024 -0.062792554 -2.056996
0001d0 52 40 1b 3d 66 d4 bd 3d ab 61 04 3d d5 db 10 3c
       0.037903138 0.092690274 0.032319706 0.008841475
0001e0 a9 ec 22 3f 97 72 5d 3e de 79 1a be 50 33 e5 3e
       0.63642365 0.21625744 -0.15085551 0.4476571
0001f0 58 8f fd 3e 21 ac 82 3f c5 d6 f9 3f e2 24 b8 3f
       0.49523425 1.020878 1.9518667 1.4386256
000200 f4 f0 d9 3d f5 27 be 3e 22 53 6e be 8a 89 bc be
       0.10641661 0.3713986 -0.232739 -0.36823684
000210 18 f7 a6 be 14 10 53 3f 8d b3 13 3f 22 dc bd 3e
       -0.32610393 0.8244641 0.5769585 0.3708201
000220 c4 82 2e 3f 03 61 5c 3f 96 d3 61 3f c6 0d 1c bd
       0.6816828 0.8608553 0.8821348 -0.038099073
000230 3e 38 8c be 5f cd 82 3f 73 9a c2 3f ef 13 de 3f
       -0.2738666 1.0218924 1.5203384 1.7349833
000240 6a 3f 2c 3f c4 0d 2c bf 4a 0c 15 3f 77 28 38 bf
       0.6728426 -0.67208505 0.58221877 -0.71936744
000250 3a 10 45 bf ac 03 e9 3e fc 46 be 3e 35 5b 7a 3e
       -0.76977885 0.45510614 0.37163532 0.24448855
000260 9b 01 4d bf 4a 2a 79 be 83 32 28 be ed fd 27 3f
       -0.80080575 -0.24332538 -0.16425519 0.65621835
000270 1b 69 8c 3d 46 fc 18 bf 59 b2 14 3f cb 12 1e bf
       0.06855985 -0.5975994 0.58084637 -0.61747426
000280 6e 1a 16 bf 86 44 86 3d 5c 20 6e 3f 23 17 08 bf
       -0.5863408 0.065560386 0.93018126 -0.53160304
000290 5f 66 13 3f 7e 7e 10 be 33 f3 3d 3f 12 11 4e 3f
       0.5757808 -0.14110753 0.7419922 0.804948
0002a0 e8 cc a7 bf 3a 84 a6 bf ca 12 0f bf 5b 1c 57 bf
       -1.3109407 -1.3009102 -0.55888045 -0.8402764
0002b0 51 be 7e bf 5f e3 b9 3e 4a f3 ad 3d 4a 01 38 bf
       -0.9950915 0.36306283 0.08493669 -0.71876967
0002c0 8b 47 79 bf 32 7b d9 3e 3e 14 98 bc ba e8 94 bf
       -0.9737479 0.42476803 -0.01856434 -1.1633523
0002d0 8a 97 70 bd 24 dc 29 bf 84 fd 91 bf 8a 68 07 be
       -0.05873827 -0.6635153 -1.1405492 -0.13223472
0002e0 f5 c6 05 bf 9a 22 65 3e 54 80 02 3e 0c 92 72 be
       -0.5225671 0.2237648 0.12744266 -0.23688525
0002f0 d7 94 6b bf d8 87 76 3e d0 79 b7 be 0b 53 0e 3f
       -0.92023987 0.24075258 -0.35835123 0.55595464
000300 2d 4c 9f bf ff 86 4b 3d b0 f5 71 3e 1d e4 e2 3e
       -1.2445122 0.04968929 0.23628879 0.44314662
000310 e2 7e c9 3e ae ef 34 3f e7 ad dc 3f f6 7f 2e be
       0.39354616 0.7067822 1.7240571 -0.17041
000320 dd 27 a3 3c 5f 4b 87 3f fe fb 2a bf 29 c3 88 be
       0.01991647 1.0569876 -0.6679076 -0.26711395
000330 37 56 ad be a8 68 4e 3e 81 6a 3d bf 69 e0 44 be
       -0.3385484 0.2015711 -0.7399064 -0.1922623
000340 0f e7 92 bc 9a 43 8b 3f 3b 6e d9 3f 89 73 0f bf
       -0.017932443 1.0880005 1.6986765 -0.5603567
000350 40 a3 f5 3e 95 41 9b 3f b4 e3 d8 3f 14 57 8c 3f
       0.47976112 1.2129389 1.694449 1.0964074
000360 21 07 9b 3f 30 50 58 3f 8b ac 34 3e 7f 49 6f 3f
       1.211155 0.84497356 0.17643945 0.9347152
000370 77 34 4b 3f 1b 5b 34 3f f6 b1 ad 3e 77 85 4d 3f
       0.7937693 0.70451516 0.33924836 0.80281776
000380 63 47 94 3e ef e7 82 bf b9 e1 9c 3f 25 c5 bf 3e
       0.28960714 -1.022703 1.2256385 0.37455097
000390 ef 7f 9a 3f 63 3b 91 3f 81 f9 94 3f 80 da e6 3e
       1.2070292 1.1346248 1.1638643 0.45088577
0003a0 97 ce 2a 3f 85 3c f9 3e 17 65 85 3f 33 df 97 3f
       0.6672148 0.48678985 1.0421475 1.186499
0003b0 ba 0c 1a 3e 24 96 5a 3f 44 b3 a9 3e 9a f2 36 3f
       0.15043917 0.85385346 0.3314458 0.7146393

sequential_1_1/dense_3_1/MatMul f4 [24, 32]
000000 88 0c 78 3e 54 14 b6 3d 9a f5 f5 3f a4 fb 13 be
       0.2422353 0.08890596 1.9215577 -0.14451462
000010 1f ad f6 3f eb 29 5b bf 94 15 7a 3f f3 5e a0 bf
       1.9271582 -0.85610837 0.97689176 -1.2528976
000020 11 10 50 3f 13 54 98 bf d4 2d 05 3f ca 7d 60 bf
       0.81274515 -1.1900657 0.52023053 -0.8769194
000030 be f1 85 3e 1c 67 61 bf 22 49 02 be a6 41 2d bf
       0.26160997 -0.8804796 -0.1272321 -0.67678297
000040 47 ae 56 bf fb b7 d5 be f3 aa 4e bf e5 f4 88 be
       -0.83859676 -0.41741928 -0.807296 -0.2674934
000050 8a a4 59 bf 68 79 ad bd 60 fe 4f bf 84 c4 81 3e
       -0.8501669 -0.08470422 -0.8124752 0.25345242
000060 e5 84 d5 be 57 f0 ec 3e 7f 0c b6 be 5d a2 a1 3e
       -0.41702953 0.46277115 -0.3555641 0.31569186
000070 e4 23 fd bc da 84 22 3e ed 4c 64 be 14 28 2d bf
       -0.030900903 0.15870991 -0.2229497 -0.6763928
000080 d0 3a f0 3d 78 e8 55 3d 15 1a 9a 3e 15 c9 0f bf
       0.117299676 0.052223653 0.30098024 -0.561662
000090 6d 86 63 3f af 5a 13 bf 25 be 04 3f 5e 5d 17 bf
       0.8887699 -0.5756025 0.5185264 -0.5912684
0000a0 71 7d 4a 3f 01 14 01 bf 26 1f 3b 3f a9 22 88 be
       0.7909766 -0.5042115 0.73094404 -0.26588944
0000b0 df 66 1e 3f a3 1a 2c bd 57 e8 be 3e bd 92 83 3e
       0.6187572 -0.04201759 0.37286636 0.2569789
0000c0 45 a5 12 3f 44 6f e4 3e f2 e5 19 3e 31 27 bd 3e
       0.5728343 0.4461614 0.15029123 0.36943963
0000d0 04 a4 36 3e 89 9a 1d 3f 18 50 22 bd 73 4d 22 3f
       0.17836004 0.61563927 -0.039627165 0.6339943
0000e0 0b c6 e9 be 95 73 02 3f ca e6 f9 be 2b e8 cb 3e
       -0.45658907 0.50957614 -0.4880889 0.39825568
0000f0 3a 39 53 bf f6 32 cc 3d e6 52 5b bf 52 bb d9 3d
       -0.82509196 0.099706575 -0.8567337 0.10631432
000100 b6 05 ec bd 64 fd 3b 3e ff 65 37 be 29 d4 b4 bd
       -0.11524527 0.1835838 -0.17910002 -0.08829529
000110 3c dc 05 3f 27 7e 0b be d2 c6 8a 3e 85 0a c5 be
       0.52289176 -0.13622342 0.27104813 -0.38484588
000120 0b 6c 12 3f fa ad 30 bf f4 09 7f 3e 3e 7f 4b bf
       0.5719611 -0.6901547 0.2490614 -0.7949103
000130 92 a5 a2 3e e8 5c 4b bf de 70 40 3d 27 dd e9 be
       0.31766945 -0.7943864 0.04698264 -0.45676538
000140 0b c0 83 be a4 cc a7 be ad d8 81 3d cd 6b 35 be
       -0.25732455 -0.32773316 0.06340156 -0.17716904
000150 5a 67 cc bd 75 33 94 3c 40 31 c2 bc 87 c6 bb 3e
       -0.0998065 0.018090943 -0.023705125 0.36674902
000160 ae f8 7d 3e 9d 7d f0 3e 11 dc ee 3d 10 5d 03 3f
       0.24801895 0.46970835 0.11663068 0.5131388
000170 19 a8 f1 3b e2 ae 29 3f 70 39 62 3d 73 73 07 3f
       0.007374775 0.66282475 0.055230558 0.52910537
000180 20 8a 78 3c 95 e5 01 be e4 22 47 be 9a 8d a1 bf
       0.01516965 -0.12685235 -0.19446903 -1.2621338
000190 77 3d c6 be 54 6a 9a bf 26 6e 30 be b4 36 8a bf
       -0.3871877 -1.2063699 -0.17229518 -1.0797944
0001a0 0d ec 32 be 2a 0d 66 bf dd 74 4d 3d 11 58 f9 be
       -0.17472859 -0.89863837 0.050160278 -0.48700002
0001b0 e9 27 ef 3c cf 5d e6 be d4 73 c6 3e 6c a3 18 bf
       0.029193835 -0.44993445 0.38760245 -0.5962436
0001c0 19 10 20 3f cd 24 26 be 74 6c 3c 3f 50 37 49 be
       0.62524563 -0.16224976 0.73602986 -0.19650006
0001d0 73 a4 81 3f 65 a6 d9 3d e8 f3 45 3f f1 7d cd bd
       1.0128311 0.1062744 0.77325296 -0.10033787
0001e0 8e 33 b8 3e d5 3d 23 3d 69 b3 ac 3e 46 e1 ad 3e
       0.35976833 0.03985389 0.3373063 0.33960932
0001f0 7f 56 f5 3e 0d 00 6c 3f de 5f 82 3e 81 02 70 3f
       0.47917554 0.9218758 0.25463766 0.9375382
000200 54 a6 38 3e d4 87 95 be cb a4 57 3e e6 38 b4 bf
       0.18032199 -0.2920519 0.21058957 -1.4079864
000210 59 8e 71 3e c6 22 a6 bf ad b3 a3 3e dc 19 99 bf
       0.23589458 -1.2979362 0.3197302 -1.1961017
000220 1d d1 d5 3e 83 9a 66 bf 65 f1 8e 3e 3d 3e 1f bf
       0.41761103 -0.90079516 0.27918544 -0.62204343
000230 ae 05 de 3e ca 79 ef be ed 08 28 3f 55 77 5b be
       0.43363708 -0.46772605 0.6563862 -0.2143224
000240 74 c9 21 3f 9f 86 35 3d 17 19 25 3f c9 5d 23 3e
       0.6319802 0.044317838 0.6449141 0.15953745
000250 78 f8 21 3f 52 c2 57 3e 80 ae 2e 3f 1f 18 ae 3e
       0.6326976 0.21070221 0.68235016 0.34002778
000260 e4 bb bb 3e 85 5c 38 3f 44 f8 92 3e 43 4c d4 3e
       0.36666787 0.72016174 0.28705037 0.41464433
000270 4f 03 fa 3d 1a 66 fd 3e 85 dd 86 be 22 3a 6d 3f
       0.12207662 0.4949196 -0.2634088 0.9266683
000280 40 16 9b bd 88 16 9b bd 31 1d 8f bf 76 dc f4 3d
       -0.07572603 -0.07572657 -1.1180784 0.11956112
000290 97 5c c3 bf dd b7 1e 3f 5e a8 bc bf 14 f4 05 3f
       -1.5262631 0.61999303 -1.4738882 0.5232556
0002a0 97 5f 81 bf 45 17 51 3f 26 63 8b bf 62 35 12 3f
       -1.0107297 0.8167613 -1.0889633 0.57112706
0002b0 5c 64 36 bf 3d 1d 87 3e 2e 5a 8a be 1a 02 54 3e
       -0.71246886 0.26389495 -0.27021927 0.20703927
0002c0 03 e7 21 3e c8 f1 41 bd c6 af aa 3e 0d 62 18 bd
       0.1581078 -0.04734972 0.3333723 -0.037202884
0002d0 ed 5c a4 3e b1 ac 14 be b8 97 be 3e fc 5b 26 3d
       0.32102147 -0.14519002 0.37225127 0.040615067
0002e0 d1 74 c2 3e 36 4d 81 3e a7 ac 97 be 8a 05 30 3f
       0.3797975 0.2525422 -0.2962391 0.6875845
0002f0 29 72 8a be 81 37 82 3f 43 ce b2 be a7 f1 bb 3f
       -0.27040222 1.0173188 -0.3492299 1.4683121
000300 20 3d a4 3c e0 6b 44 bd 52 ae ff 3d 92 61 8d 3f
       0.020048678 -0.04795444 0.12484421 1.1045401
000310 ed 62 09 3d 89 f2 a3 3f bd a2 e6 3d ad 89 5a 3f
       0.03354161 1.2808391 0.112615086 0.85366327
000320 fe 6a 11 3f 9f c7 17 3f ce 06 6d 3f 80 4f 13 3f
       0.5680388 0.5928897 0.9258851 0.5754318
000330 78 38 60 3f d1 16 64 3e a7 af 61 3f fb 9d 47 3e
       0.87586164 0.22274329 0.8815865 0.19493859
000340 91 5b 4c 3f 3d a7 07 bd 57 50 01 3f f6 d7 5e be
       0.7982722 -0.033118475 0.50513214 -0.2176207
000350 a3 ce cc 3e fa f6 59 be 23 b2 ba 3d a9 14 93 be
       0.400014 -0.2128562 0.09116008 -0.287267
000360 80 3d ee 3d cc bd 03 bf bf 01 31 3e 4f 6a 1e bf
       0.11632824 -0.5146148 0.17285822 -0.61880964
000370 0f 49 f1 3d 19 2c 4d bf 01 40 c3 3e d3 1c 29 bf
       0.11781513 -0.8014541 0.3813477 -0.6605961
000380 f5 33 23 be e8 62 9e 3e b8 78 fe 3e 30 6f af bf
       -0.15937789 0.30934834 0.49701476 -1.3705807
000390 10 60 d3 3e 3b f8 a4 bf f9 e0 b8 3e 9e cc b2 bf
       0.41284227 -1.2888254 0.3610914 -1.3968694
0003a0 8e 05 6d 3e 64 dc 5c bf aa c7 02 3f dd db 2a bf
       0.2314665 -0.8627379 0.51085913 -0.66741735
0003b0 7d 0d 34 be 9c 33 f5 be b0 13 a6 be 72 06 4d be
       -0.1758327 -0.47890937 -0.32436895 -0.2002199
0003c0 e3 78 30 be e1 f3 ea bd 68 c4 eb be 40 c5 70 3d
       -0.17233615 -0.114722975 -0.46048284 0.058781862
0003d0 e8 d6 ee be 9c 9a 11 3d f3 e7 17 bf 6e 72 09 3e
       -0.46648335 0.035547838 -0.593383 0.13422558
0003e0 0e f4 39 bf da c3 97 bd cc 76 3a bf 3e 31 0a 3d
       -0.7263802 -0.074104026 -0.7283752 0.033738367
0003f0 eb eb 67 bf e1 4e 01 be 06 16 92 bf b2 97 cc be
       -0.9059436 -0.12627746 -1.1412971 -0.39959484

sequential_1_1/dense_3_1/Relu;sequential_1_1/dense_3_1/BiasAdd f4 [24]
000000 3b 07 9e bc 8c 6b eb bd 63 1a 41 3e 09 06 a0 bd
       -0.019290557 -0.11495122 0.18857722 -0.07813651
000010 76 18 97 bd 97 7f 96 bd 3b 50 31 be df 8d 74 bd
       -0.073777124 -0.073485546 -0.17315762 -0.05970561
000020 26 39 87 bc 2f a5 7e 3d ca 37 3a bd 94 80 1a 3e
       -0.016506743 0.06216925 -0.04546336 0.15088111
000030 a2 64 1a bd e8 de 61 bd 43 8a b5 bd 52 fb 82 bd
       -0.037693627 -0.05514422 -0.08864262 -0.06395592
000040 1a 06 2a bd af 8e 75 bd b2 c0 32 be cc d1 a8 bc
       -0.041509725 -0.059950527 -0.1745632 -0.020607851
000050 61 e0 1b 3e 9e 64 27 bd 9e 5d a5 bd a9 39 0d bd
       0.15222313 -0.04086744 -0.08074497 -0.034478817
